basic_model_best.pth (torch, 2392 bytes, 3 tensors)

hidden.weight f4 [5, 11]
000000 6c a6 bd 3d 0f ab 3a be d9 fa 89 bc c0 49 aa 3d
       0.09260258 -0.18229316 -0.016843246 0.08314848
000010 c1 0c 50 3e d3 56 80 3e 7f 2b a0 3d 95 ce 6e be
       0.20317365 0.25066242 0.07820796 -0.23320992
000020 44 db 4a be 27 70 55 be aa 3a aa bc 12 40 7d bd
       -0.19810206 -0.20843564 -0.020779926 -0.06182868
000030 72 8f 9d 3e ba 4a 40 3c 90 60 55 bd da 09 1d be
       0.30773503 0.011736566 -0.052094042 -0.1533579
000040 40 21 57 3e b4 b7 47 be c1 87 0b bd 23 83 55 3e
       0.21008778 -0.19503671 -0.034065012 0.20850806
000050 30 1c 56 3e 0f d5 9d be 5b e3 f4 bd 3e 38 1d bd
       0.2090919 -0.30826613 -0.11957427 -0.038383715
000060 a7 93 30 bd 6c 2f 28 3e 3f d7 f3 3d 90 50 5f be
       -0.043109562 0.1642434 0.11906289 -0.21808076
000070 2f 52 c2 be 76 01 6f bd 82 8b 66 3e 61 6e 9d 3e
       -0.37953326 -0.058351003 0.22514156 0.30748275
000080 81 22 28 3f c7 06 9c 3e 01 42 bc be d7 c2 08 3e
       0.6567765 0.3047392 -0.36769107 0.13355576
000090 29 3e 49 3d 78 d1 a1 be 38 e3 68 3e bc cf d9 3d
       0.049131546 -0.31605124 0.22742927 0.10635325
0000a0 b9 8a 9b 3e 7d ba 33 3e 36 cb 6f 3e 5e c5 1f 3f
       0.30379274 0.17551608 0.23417363 0.62410533
0000b0 81 25 f6 3d 54 c4 a4 be bd 08 9d 3d b1 ef 74 be
       0.12018872 -0.32181036 0.07667682 -0.2391956
0000c0 8f 09 f8 3c 0f 59 54 3e 7b 48 18 be d9 2e c3 3d
       0.030277995 0.20737098 -0.14871399 0.0953042
0000d0 8f d1 0b 3d d7 3f 9a 3e f6 9d 52 3f
       0.034135398 0.3012683 0.8227228

hidden.bias f4 [5]
000000 e1 0d d3 bb 63 33 d3 3c ad b9 59 3f 7a f1 f4 3e
       -0.0064408635 0.025781339 0.85048944 0.47840482
000010 fd db 56 3f
       0.83929425

output.weight f4 [1, 5]
000000 bd 62 ea bc 4b 79 7e be e9 3f 86 3f d8 40 6b 3f
       -0.028611535 -0.24850957 1.0488254 0.9189582
000010 c7 c9 a4 3f
       1.2874078
