basic_model_best.pth (torch, 2392 bytes, 3 tensors)

hidden.weight f4 [5, 11]
0	0x3de6ed59	0.11275739
1	0xbe2359c9	-0.15952219
2	0xbdcfbea1	-0.101437815
3	0x3de8bd56	0.11364238
4	0xbdabc8e9	-0.0838793
5	0x3e4f6f07	0.20257197
6	0x3ddf50d7	0.10904091
7	0xbbbee3f8	-0.005825516
8	0x3d87add4	0.06624952
9	0xbe5f79fb	-0.21823876
10	0xbdf41398	-0.119178
11	0x3ec40ae0	0.38289547
12	0xbe96eded	-0.29478398
13	0x3ea2e881	0.3181801
14	0xbb8d4465	-0.004311132
15	0xbdb25884	-0.08708289
16	0x3de0f371	0.10983933
17	0xbebc6ffa	-0.3680418
18	0xbdf4e7ea	-0.119582966
19	0x3ef54199	0.4790161
20	0x3f1373fe	0.57598865
21	0x3f888451	1.066538
22	0xbe8e2b5c	-0.27767456
23	0x3e0d9d33	0.13829498
24	0x3e40a356	0.18812308
25	0xbd289edd	-0.04116713
26	0x3d826b20	0.06368089
27	0xbdcae3a9	-0.09906704
28	0x3e902df7	0.28160068
29	0x3d44b0cb	0.048020165
30	0xbb07f581	-0.0020745697
31	0xbe5f09c6	-0.21781072
32	0xbdab9229	-0.08377487
33	0xbe4fec9a	-0.203051
34	0x3e0f9e7d	0.14025302
35	0xbe8e0de4	-0.27744973
36	0x3e2dbaa0	0.16965723
37	0x3e200a15	0.15628846
38	0x3eaf2328	0.3420651
39	0x3e184490	0.14869905
40	0xbe6f2989	-0.23355688
41	0xbe634ae1	-0.22196533
42	0x3e82bc28	0.25534177
43	0x3ecc4d20	0.39902592
44	0xbe23dbe4	-0.1600185
45	0x3cd2b38d	0.025720382
46	0xbe3e0b0b	-0.185589
47	0xbe645c54	-0.22300845
48	0x3e820433	0.2539383
49	0xbdfcbea8	-0.12341052
50	0xbe8f10da	-0.27942544
51	0x3e3940e6	0.18091163
52	0xbe5c6d2b	-0.2152602
53	0x3dff4c2f	0.12465703
54	0x3e596d29	0.21233048

hidden.bias f4 [5]
0	0xbc8aa688	-0.016925111
1	0x3fa24f78	1.2680502
2	0x3dd5d357	0.104407005
3	0x3e4b3b46	0.1984683
4	0xbe477503	-0.1947823

output.weight f4 [1, 5]
0	0xbe9bc7ec	-0.30425966
1	0x3feeda7d	1.8660427
2	0xbee3aa75	-0.44465986
3	0x3f040077	0.5156321
4	0xbd8075e8	-0.06272489
