model_best.pth (torch, 2982 bytes, 5 tensors)

linear1.weight f4 [7, 11]
00000000: 2283 f4bd 782f f4be dae4 203e b7e7 1a3d
00000010: 6483 c6be 4989 ffbd e7c9 82be 0adc e5bc
00000020: e221 243e e416 6f3e 486e 483e 7d2a 613e
00000030: 39a4 bebe 5e2a bdbd bc06 1c3b 492d 47bd
00000040: d86d 853e d842 21be a65a 9ebc 2aef 923d
00000050: 8944 163f bf49 e03e 63ba 88be 03e2 bf3e
00000060: abf9 223e e04b 553b 7c0c 0a3e c276 373e
00000070: 0bae 8fbd f42b 3d3e fb21 fd3e 7a73 80bd
00000080: ad7a 92be d36c 96be 8cf6 6a3e 7172 4d3e
00000090: b24d 37be 1351 69bd 15ce 73be bad1 9d3e
000000a0: a68c 863e e55b cabb a071 f1bd 55f6 e7be
000000b0: 5615 33be 84b1 963e 8b53 54be 796b 613e
000000c0: b0e0 7ebe 4d67 bdbd 4cdc 37be 0492 0a3b
000000d0: 0ac0 aabd 8f73 63be 45fe d3bd 29b2 873c
000000e0: 3387 4fbd a430 42be 478e 013e d19f 84be
000000f0: 643e 1d3e 790a 773d 8dc0 ea3d e780 d6bd
00000100: 7eb2 ef3d 4d0a e6bd f30f 3b3e 931b 29be
00000110: 8f8c 9f3c aefd 2fbe c812 403e 6696 a13e
00000120: f364 68be 5cab 9a3d 9ee7 5dbe 73f5 1a3e
00000130: 6369 9ebe
-0.11939074 -0.47692466 0.157123 0.037818637 -0.38772118 -0.12477357 -0.25544664 -0.028059024
0.1602855 0.23348576 0.19573319 0.21988864 -0.37234667 -0.092365965 0.0023807725 -0.04862717
0.26060367 -0.15748155 -0.019330334 0.07174523 0.58698326 0.43806264 -0.26704702 0.3747712
0.15915553 0.0032546446 0.13481325 0.17916396 -0.07015618 0.18473798 0.49439988 -0.062720254
-0.2860922 -0.293799 0.22945613 0.20063187 -0.17900732 -0.056962084 -0.23809083 0.3082407
0.2627918 -0.0061755055 -0.117892504 -0.45305124 -0.17488608 0.2943231 -0.20734994 0.22013654
-0.24890399 -0.09248219 -0.1795513 0.002114416 -0.0833741 -0.22212051 -0.103512324 0.016564446
-0.050666045 -0.18963867 0.12651931 -0.2590318 0.15355831 0.060312722 0.114625074 -0.10473805
0.117039666 -0.112324335 0.18267803 -0.16514425 0.019476203 -0.17186615 0.18757164 0.31560057
-0.22694759 0.075522155 -0.21670386 0.15132694 -0.3093978

linear1.bias f4 [7]
00000000: b677 ac3e c6ee d53e 4094 9abd dabd 6e3e
00000010: cd1b 91be 765a 16be 8756 b43d
0.33685082 0.41783732 -0.07547808 0.2331461 -0.28341523 -0.14682946 0.08805566

linear2.weight f4 [4, 7]
00000000: 8dc8 a23e 6561 d23e 836d 06be 6f60 5c3e
00000010: c30a dabd d2e6 86bd 3d36 653e 3479 0b3f
00000020: 347a 393f b620 e4be f916 20bf 9aac f3bd
00000030: 6d7d 9b3e 2dcc 04bf 83bd 27be 86db 8d3e
00000040: 3131 363c c665 80be 696a e63d d9f3 f53d
00000050: c51e 62bb 0c95 ad3e bf75 94bd 5739 b73e
00000060: 6795 743e 1e39 133e c2fd 983e 8752 fcbc
0.31793633 0.4108993 -0.13127713 0.21521161 -0.10646584 -0.06586994 0.22383972 0.54481816
0.7245209 -0.44556206 -0.62535053 -0.118981555 0.3036913 -0.5187405 -0.16380887 0.27706546
0.011120127 -0.25077647 0.11250765 0.12009401 -0.0034503203 0.33902776 -0.07249021 0.35785934
0.23885117 0.14377257 0.29881102 -0.03080107

linear2.bias f4 [4]
00000000: b03f d83e 8456 c23f ec2f bcbe a811 cbbd
0.4223609 1.5182652 -0.3675531 -0.09915477

output.weight f4 [1, 4]
00000000: 72a7 0a3f d57d f53f e0e1 ffbe 1475 c1be
0.5416175 1.9179026 -0.49977016 -0.37784636
