model_best.pth (torch, 2982 bytes, 5 tensors)

linear1.weight f4 [7, 11]
00000000: 5b7d 313e 1d06 303d 4dd4 bfbd 25a3 babd
00000010: 2695 d93d 5f26 663d 85ce b6bd 05c5 3f3d
00000020: 39b1 39be 3510 30be e3ec 11be 8f4e ec3d
00000030: 44a5 9e3e c5d3 8a3e 02d2 0d3e 7f8b 5f3e
00000040: f78e 503d 78b1 7d3d b98e 8b3e 9e28 293e
00000050: 060c 3fbe 6c6d ccbe b8e2 f43b 56df 493e
00000060: 7202 e43d 2fe0 b9bd 686c 6cbe 6c0d 3e3d
00000070: be5c fcbd a0d2 67be 256e dabd 9764 25be
00000080: 8156 8a3c c0af 60be f63d 8dbe 4f5f acbd
00000090: 9f77 6bbe 434e b8bc b91b 853e 3313 023e
000000a0: 92c3 2dbe 52f0 70be ebb9 47be 5e17 b8bd
000000b0: f87b 89be 64b0 db3d 4b95 1f3e d0dd a3bd
000000c0: bd2d 9cbd ca9d 3fbe 3aa9 8fbe 1469 adbe
000000d0: 2bed 273e 5402 bc3d b0af 3abb b0dc 8a3e
000000e0: d3f0 25bf 622c 3abd 16fe 013e ce47 72be
000000f0: 5e28 fc3d ca33 99be c7e4 1cbd 8238 e43a
00000100: 7a6e 073f 3b30 313f e574 273e c007 8cbe
00000110: e766 49bc a929 d23d 88b4 2cbe bb2e 633e
00000120: ea74 28be 8f74 82be ef5f b2bd c7c0 e33c
00000130: 63f1 32be
0.17332976 0.04297458 -0.09366665 -0.091131486 0.10624151 0.056188937 -0.08926109 0.04681875
-0.18134011 -0.17193682 -0.14250521 0.11538421 0.30985463 0.27114692 0.13849643 0.21830557
0.050917592 0.061936826 0.27257326 0.165194 -0.1865693 -0.39927232 0.007473316 0.19714102
0.11133279 -0.09075963 -0.23088229 0.04639952 -0.12322377 -0.22638941 -0.1066554 -0.16151653
0.016886951 -0.21942043 -0.27586335 -0.08416616 -0.2299485 -0.022498256 0.25997713 0.12702636
-0.16969135 -0.23529175 -0.19504516 -0.08988832 -0.26852393 0.10727003 0.15584294 -0.08001292
-0.076259114 -0.18712536 -0.28058797 -0.3386923 0.16399066 0.091801316 -0.0028486066 0.27121496
-0.64820594 -0.045452483 0.12694582 -0.23660204 0.12312387 -0.29922324 -0.038304117 0.001741186
0.5290295 0.6921422 0.16353185 -0.27349663 -0.0122926 0.10261852 -0.16865742 0.22185795
-0.16450849 -0.25479552 -0.08709704 0.027801884 -0.17474894

linear1.bias f4 [7]
00000000: 228f 81be c364 d4bd b707 bf3e 2f4d e63d
00000010: 77d6 cb3d 59df ff3e db35 853d
-0.25304514 -0.10370781 0.37310573 0.1124519 0.09953015 0.49975088 0.06504413

linear2.weight f4 [4, 7]
00000000: 05f8 6f3e a5b5 efbe 73cb 023e 4fc7 53be
00000010: b3e9 44be 5b7b 953f 2cee 80be f4b2 4e3e
00000020: 7f94 9bbe 79f2 0dbe 833a b93e 4c77 5dbe
00000030: d567 af3d 5966 85be 826f 18be 4c06 91be
00000040: 0433 81be fa72 c1be 8f92 893d 6379 4a3d
00000050: 5e2b b83e ed10 833e 3dbf c9bd 0e79 c33d
00000060: 45aa 973e 7e42 c03e 802b d3ba 9c6d adbe
0.23434456 -0.4681827 0.12772922 -0.20681499 -0.19229774 1.167827 -0.2518171 0.20185453
-0.3038673 -0.13862027 0.36177453 -0.2162754 0.08564726 -0.26054648 -0.14886287 -0.28325117
-0.25234234 -0.37783033 0.06717407 0.04943217 0.35970587 0.2559885 -0.09850929 0.09544574
0.29622093 0.3755073 -0.0016110986 -0.33872688

linear2.bias f4 [4]
00000000: 9b09 bb3f 8097 99be e49b d7bd f952 c0be
1.4612306 -0.29998398 -0.10527781 -0.37563303

output.weight f4 [1, 4]
00000000: 592a f63f 54d0 e4be bae7 dfbe a849 76be
1.9231673 -0.44690192 -0.4373148 -0.24051535
